…
2020-03-23 16:44:56.675956: I tensorflow/compiler/xla/service/service.cc:175]   StreamExecutor device (0): GeForce GTX TITAN X, Compute Capability 5.2
2020-03-23 16:44:58.146435: I tensorflow/stream_executor/platform/default/dso_loader.cc:42] Successfully opened dynamic library libcublas.so.10.0
2020-03-23 16:44:58.492711: I tensorflow/stream_executor/platform/default/dso_loader.cc:42] Successfully opened dynamic library libcudnn.so.7
Loading MNIST dataset.
_________________________________________________________________
Layer (type)                 Output Shape              Param #   
=================================================================
input_2 (InputLayer)         (None, 32, 32, 1)         0         
_________________________________________________________________
conv2d_6 (Conv2D)            (None, 32, 32, 16)        160       
_________________________________________________________________
max_pooling2d_3 (MaxPooling2 (None, 16, 16, 16)        0         
_________________________________________________________________
conv2d_7 (Conv2D)            (None, 16, 16, 32)        2080      
_________________________________________________________________
max_pooling2d_4 (MaxPooling2 (None, 8, 8, 32)          0         
_________________________________________________________________
flatten_2 (Flatten)          (None, 2048)              0         
_________________________________________________________________
dense_3 (Dense)              (None, 256)               524544    
=================================================================
Total params: 526,784
Trainable params: 526,784
Non-trainable params: 0
_________________________________________________________________
Loading SVHN dataset.
_________________________________________________________________
Layer (type)                 Output Shape              Param #   
=================================================================
input_4 (InputLayer)         (None, 32, 32, 3)         0         
_________________________________________________________________
conv2d_16 (Conv2D)           (None, 32, 32, 16)        448       
_________________________________________________________________
max_pooling2d_7 (MaxPooling2 (None, 16, 16, 16)        0         
_________________________________________________________________
conv2d_17 (Conv2D)           (None, 16, 16, 32)        2080      
_________________________________________________________________
max_pooling2d_8 (MaxPooling2 (None, 8, 8, 32)          0         
_________________________________________________________________
flatten_4 (Flatten)          (None, 2048)              0         
_________________________________________________________________
dense_7 (Dense)              (None, 256)               524544    
_________________________________________________________________
dense_8 (Dense)              (None, 2048)              526336    
_________________________________________________________________
reshape_4 (Reshape)          (None, 8, 8, 32)          0         
_________________________________________________________________
conv2d_18 (Conv2D)           (None, 8, 8, 32)          4128      
_________________________________________________________________
up_sampling2d_7 (UpSampling2 (None, 16, 16, 32)        0         
_________________________________________________________________
conv2d_19 (Conv2D)           (None, 16, 16, 16)        4624      
_________________________________________________________________
up_sampling2d_8 (UpSampling2 (None, 32, 32, 16)        0         
_________________________________________________________________
conv2d_20 (Conv2D)           (None, 32, 32, 3)         435       
=================================================================
Total params: 1,062,595
Trainable params: 1,062,595
Non-trainable params: 0
_________________________________________________________________
